…
[2025-05-13 22:06:09,833][__main__][INFO] - Using device: mps
[2025-05-13 22:06:09,833][__main__][INFO] - Creating multi-branch transformer model
[2025-05-13 22:06:09,892][__main__][INFO] - Model config: {'hf_seq_len': 60, 'hf_feat_dim': 20, 'mf_seq_len': 30, 'mf_feat_dim': 15, 'lf_seq_len': 30, 'lf_feat_dim': 10, 'static_feat_dim': 15, 'd_model': 64, 'd_fused': 256, 'hf_layers': 2, 'mf_layers': 2, 'lf_layers': 2, 'hf_heads': 4, 'mf_heads': 4, 'lf_heads': 4, 'action_dim': 1, 'continuous_action': True, 'dropout': 0.1}
[2025-05-13 22:06:09,892][__main__][INFO] - Model structure: MultiBranchTransformer(
  (hf_proj): Linear(in_features=20, out_features=64, bias=True)
  (hf_pos_enc): PositionalEncoding(
    (dropout): Dropout(p=0.1, inplace=False)
  )
  (hf_encoder): TransformerEncoder(
    (layers): ModuleList(
      (0-1): 2 x TransformerEncoderLayer(
        (self_attn): MultiheadAttention(
          (out_proj): NonDynamicallyQuantizableLinear(in_features=64, out_features=64, bias=True)
        )
        (linear1): Linear(in_features=64, out_features=128, bias=True)
        (dropout): Dropout(p=0.1, inplace=False)
        (linear2): Linear(in_features=128, out_features=64, bias=True)
        (norm1): LayerNorm((64,), eps=1e-05, elementwise_affine=True)
        (norm2): LayerNorm((64,), eps=1e-05, elementwise_affine=True)
        (dropout1): Dropout(p=0.1, inplace=False)
        (dropout2): Dropout(p=0.1, inplace=False)
        (activation): GELU(approximate='none')
      )
    )
    (norm): LayerNorm((64,), eps=1e-05, elementwise_affine=True)
  )
  (mf_proj): Linear(in_features=15, out_features=64, bias=True)
  (mf_pos_enc): PositionalEncoding(
    (dropout): Dropout(p=0.1, inplace=False)
  )
  (mf_encoder): TransformerEncoder(
    (layers): ModuleList(
      (0-1): 2 x TransformerEncoderLayer(
        (self_attn): MultiheadAttention(
          (out_proj): NonDynamicallyQuantizableLinear(in_features=64, out_features=64, bias=True)
        )
        (linear1): Linear(in_features=64, out_features=128, bias=True)
        (dropout): Dropout(p=0.1, inplace=False)
        (linear2): Linear(in_features=128, out_features=64, bias=True)
        (norm1): LayerNorm((64,), eps=1e-05, elementwise_affine=True)
        (norm2): LayerNorm((64,), eps=1e-05, elementwise_affine=True)
        (dropout1): Dropout(p=0.1, inplace=False)
        (dropout2): Dropout(p=0.1, inplace=False)
        (activation): GELU(approximate='none')
      )
    )
    (norm): LayerNorm((64,), eps=1e-05, elementwise_affine=True)
  )
  (lf_proj): Linear(in_features=10, out_features=64, bias=True)
  (lf_pos_enc): PositionalEncoding(
    (dropout): Dropout(p=0.1, inplace=False)
  )
  (lf_encoder): TransformerEncoder(
    (layers): ModuleList(
      (0-1): 2 x TransformerEncoderLayer(
        (self_attn): MultiheadAttention(
          (out_proj): NonDynamicallyQuantizableLinear(in_features=64, out_features=64, bias=True)
        )
        (linear1): Linear(in_features=64, out_features=128, bias=True)
        (dropout): Dropout(p=0.1, inplace=False)
        (linear2): Linear(in_features=128, out_features=64, bias=True)
        (norm1): LayerNorm((64,), eps=1e-05, elementwise_affine=True)
        (norm2): LayerNorm((64,), eps=1e-05, elementwise_affine=True)
        (dropout1): Dropout(p=0.1, inplace=False)
        (dropout2): Dropout(p=0.1, inplace=False)
        (activation): GELU(approximate='none')
      )
    )
    (norm): LayerNorm((64,), eps=1e-05, elementwise_affine=True)
  )
  (static_encoder): Sequential(
    (0): Linear(in_features=15, out_features=64, bias=True)
    (1): LayerNorm((64,), eps=1e-05, elementwise_affine=True)
    (2): GELU(approximate='none')
    (3): Linear(in_features=64, out_features=64, bias=True)
    (4): LayerNorm((64,), eps=1e-05, elementwise_affine=True)
    (5): GELU(approximate='none')
  )
  (fusion): AttentionFusion(
    (self_attention): MultiheadAttention(
      (out_proj): NonDynamicallyQuantizableLinear(in_features=64, out_features=64, bias=True)
    )
    (proj): Sequential(
      (0): Linear(in_features=256, out_features=256, bias=True)
      (1): LayerNorm((256,), eps=1e-05, elementwise_affine=True)
      (2): GELU(approximate='none')
      (3): Dropout(p=0.1, inplace=False)
    )
  )
  (actor): ActorNetwork(
    (shared): Sequential(
      (0): Linear(in_features=256, out_features=256, bias=True)
      (1): LayerNorm((256,), eps=1e-05, elementwise_affine=True)
      (2): GELU(approximate='none')
      (3): Linear(in_features=256, out_features=256, bias=True)
      (4): LayerNorm((256,), eps=1e-05, elementwise_affine=True)
      (5): GELU(approximate='none')
    )
    (mean): Linear(in_features=256, out_features=1, bias=True)
  )
  (critic): CriticNetwork(
    (critic): Sequential(
      (0): Linear(in_features=256, out_features=256, bias=True)
      (1): LayerNorm((256,), eps=1e-05, elementwise_affine=True)
      (2): GELU(approximate='none')
      (3): Linear(in_features=256, out_features=256, bias=True)
      (4): LayerNorm((256,), eps=1e-05, elementwise_affine=True)
      (5): GELU(approximate='none')
      (6): Linear(in_features=256, out_features=1, bias=True)
    )
  )
)
[2025-05-13 22:06:10,289][__main__][ERROR] - Error during model forward pass: 'tuple' object has no attribute 'shape'
[2025-05-13 22:06:10,291][__main__][INFO] - Setting up PPO trainer
[2025-05-13 22:06:11,075][__main__][INFO] - PPO Trainer initialized on device: mps
[2025-05-13 22:06:11,075][__main__][INFO] - Model: MultiBranchTransformer
[2025-05-13 22:06:11,075][__main__][INFO] - Learning rate: 0.0003
…
