…
,4,4,5,4,6,7,6,5,6,5,6,4,3,6,7,5,3,0,3,4,2,4,4,3,2,2,2,3,4,1,1,3],"bins":[… "gradients/mf_encoder.norm.weight":{"bins":[… "_type":"histogram","values":[1,0,0,0,0,0,0,0,0,0,0,0,0,0,0,0,0,0,1,0,0,0,1,0,0,0,0,1,0,1,0,0,0,1,2,0,0,2,2,5,2,5,4,5,4,3,6,3,1,2,1,2,0,1,1,0,1,2,0,0,1,2,0,1]},"gradients/mf_encoder.layers.0.linear1.weight":{"_type":"histogram","values":[2,0,1,2,2,0,2,7,2,6,6,6,10,9,7,20,18,25,20,34,32,43,35,79,84,110,168,252,441,701,1846,1981,800,384,283,189,112,91,63,66,41,33,27,25,24,16,13,18,12,7,5,6,7,5,2,2,2,4,1,0,0,1,1,1],"bins":[… "model_summary":"MultiBranchTransformer(\n  (hf_proj): Linear(in_features=20, out_features=64, bias=True)\n  (hf_pos_enc): PositionalEncoding(\n    (dropout): Dropout(p=0.1, inplace=False)\n  )\n  (hf_encoder): TransformerEncoder(\n    (layers): ModuleList(\n      (0-1): 2 x TransformerEncoderLayer(\n        (self_attn): MultiheadAttention(\n          (out_proj): NonDynamicallyQuantizableLinear(in_features=64, out_features=64, bias=True)\n        )\n        (linear1): Linear(in_features=64, out_features=128, bias=True)\n        (dropout): Dropout(p=0.1, inplace=False)\n        (linear2): Linear(in_features=128, out_features=64, bias=True)\n        (norm1): LayerNorm((64,), eps=1e-05, elementwise_affine=True)\n        (norm2): LayerNorm((64,), eps=1e-05, elementwise_affine=True)\n        (dropout1): Dropout(p=0.1, inplace=False)\n        (dropout2): Dropout(p=0.1, inplace=False)\n        (activation): GELU(approximate='none')\n      )\n    )\n    (norm): LayerNorm((64,), eps=1e-05, elementwise_affine=True)\n  )\n  (mf_proj): Linear(in_features=15, out_features=64, bias=True)\n  (mf_pos_enc): PositionalEncoding(\n    (dropout): Dropout(p=0.1, inplace=False)\n  )\n  (mf_encoder): TransformerEncoder(\n    (layers): ModuleList(\n      (0-1): 2 x TransformerEncoderLayer(\n        (self_attn): MultiheadAttention(\n          (out_proj): NonDynamicallyQuantizableLinear(in_features=64, out_features=64, bias=True)\n        )\n        (linear1): Linear(in_features=64, out_features=128, bias=True)\n        (dropout): Dropout(p=0.1, inplace=False)\n        (linear2): Linear(in_features=128, out_features=64, bias=True)\n        (norm1): LayerNorm((64,), eps=1e-05, elementwise_affine=True)\n        (norm2): LayerNorm((64,), eps=1e-05, elementwise_affine=True)\n        (dropout1): Dropout(p=0.1, inplace=False)\n        (dropout2): Dropout(p=0.1, inplace=False)\n        (activation): GELU(approximate='none')\n      )\n    )\n    (norm): LayerNorm((64,), eps=1e-05, elementwise_affine=True)\n  )\n  (lf_proj): Linear(in_features=10, out_features=64, bias=True)\n  (lf_pos_enc): PositionalEncoding(\n    (dropout): Dropout(p=0.1, inplace=False)\n  )\n  (lf_encoder): TransformerEncoder(\n    (layers): ModuleList(\n      (0-1): 2 x TransformerEncoderLayer(\n        (self_attn): MultiheadAttention(\n          (out_proj): NonDynamicallyQuantizableLinear(in_features=64, out_features=64, bias=True)\n        )\n        (linear1): Linear(in_features=64, out_features=128, bias=True)\n        (dropout): Dropout(p=0.1, inplace=False)\n        (linear2): Linear(in_features=128, out_features=64, bias=True)\n        (norm1): LayerNorm((64,), eps=1e-05, elementwise_affine=True)\n        (norm2): LayerNorm((64,), eps=1e-05, elementwise_affine=True)\n        (dropout1): Dropout(p=0.1, inplace=False)\n        (dropout2): Dropout(p=0.1, inplace=False)\n        (activation): GELU(approximate='none')\n      )\n    )\n    (norm): LayerNorm((64,), eps=1e-05, elementwise_affine=True)\n  )\n  (static_encoder): Sequential(\n    (0): Linear(in_features=15, out_features=64, bias=True)\n    (1): LayerNorm((64,), eps=1e-05, elementwise_affine=True)\n    (2): GELU(approximate='none')\n    (3): Linear(in_features=64, out_features=64, bias=True)\n    (4): LayerNorm((64,), eps=1e-05, elementwise_affine=True)\n    (5): GELU(approximate='none')\n  )\n  (fusion): AttentionFusion(\n    (self_attention): MultiheadAttention(\n      (out_proj): NonDynamicallyQuantizableLinear(in_features=64, out_features=64, bias=True)\n    )\n    (proj): Sequential(\n      (0): Linear(in_features=256, out_features=256, bias=True)\n      (1): LayerNorm((256,), eps=1e-05, elementwise_affine=True)\n      (2): GELU(approximate='none')\n      (3): Dropout(p=0.1, inplace=False)\n    )\n  )\n  (actor): ActorNetwork(\n    (shared): Sequential(\n      (0): Linear(in_features=256, out_features=256, bias=True)\n      (1): LayerNorm((256,), eps=1e-05, elementwise_affine=True)\n      (2): GELU(approximate='none')\n      (3): Linear(in_features=256, out_features=256, bias=True)\n      (4): LayerNorm((256,), eps=1e-05, elementwise_affine=True)\n      (5): GELU(approximate='none')\n    )\n    (mean): Linear(in_features=256, out_features=1, bias=True)\n  )\n  (critic): CriticNetwork(\n    (critic): Sequential(\n      (0): Linear(in_features=256, out_features=256, bias=True)\n      (1): LayerNorm((256,), eps=1e-05, elementwise_affine=True)\n      (2): GELU(approximate='none')\n      (3): Linear(in_features=256, out_features=256, bias=True)\n      (4): LayerNorm((256,), eps=1e-05, elementwise_affine=True)\n      (5): GELU(approximate='none')\n      (6): Linear(in_features=256, out_features=1, bias=True)\n    )\n  )\n)","gradients/actor.shared.0.weight":{"_type":"histogram","values":[1,0,1,0,0,2,2,2,1,1,2,5,5,8,14,8,10,25,24,20,36,43,54,87,99,129,199,288,432,779,2239,50640,7808,1178,519,297,140,115,70,44,37,27,29,28,16,8,13,14,3,11,7,1,7,1,1,0,2,0,3,0,0,0,0,1],"bins":[… "parameters/mf_encoder.layers.0.norm2.weight":{"bins":[… "_type":"histogram","values"
…
