{"model_architecture":"MultiBranchTransformer(\n  (hf_proj): Linear(in_features=20, out_features=64, bias=True)\n  (hf_pos_enc): PositionalEncoding(\n    (dropout): Dropout(p=0.1, inplace=False)\n  )\n  (hf_encoder): TransformerEncoder(\n    (layers): ModuleList(\n      (0-1): 2 x TransformerEncoderLayer(\n        (self_attn): MultiheadAttention(\n          (out_proj): NonDynamicallyQuantizableLinear(in_features=64, out_features=64, bias=True)\n        )\n        (linear1): Linear(in_features=64, out_features=128, bias=True)\n        (dropout): Dropout(p=0.1, inplace=False)\n        (linear2): Linear(in_features=128, out_features=64, bias=True)\n        (norm1): LayerNorm((64,), eps=1e-05, elementwise_affine=True)\n        (norm2): LayerNorm((64,), eps=1e-05, elementwise_affine=True)\n        (dropout1): Dropout(p=0.1, inplace=False)\n        (dropout2): Dropout(p=0.1, inplace=False)\n        (activation): GELU(approximate='none')\n      )\n    )\n    (norm): LayerNorm((64,), eps=1e-05, elementwise_affine=True)\n  )\n  (mf_proj): Linear(in_features=15, out_features=64, bias=True)\n  (mf_pos_enc): PositionalEncoding(\n    (dropout): Dropout(p=0.1, inplace=False)\n  )\n  (mf_encoder): TransformerEncoder(\n    (layers): ModuleList(\n      (0-1): 2 x TransformerEncoderLayer(\n        (self_attn): MultiheadAttention(\n          (out_proj): NonDynamicallyQuantizableLinear(in_features=64, out_features=64, bias=True)\n        )\n        (linear1): Linear(in_features=64, out_features=128, bias=True)\n        (dropout): Dropout(p=0.1, inplace=False)\n        (linear2): Linear(in_features=128, out_features=64, bias=True)\n        (norm1): LayerNorm((64,), eps=1e-05, elementwise_affine=True)\n        (norm2): LayerNorm((64,), eps=1e-05, elementwise_affine=True)\n        (dropout1): Dropout(p=0.1, inplace=False)\n        (dropout2): Dropout(p=0.1, inplace=False)\n        (activation): GELU(approximate='none')\n      )\n    )\n    (norm): LayerNorm((64,), eps=1e-05, elementwise_affine=True)\n  )\n  (lf_proj): Linear(in_features=10, out_features=64, bias=True)\n  (lf_pos_enc): PositionalEncoding(\n    (dropout): Dropout(p=0.1, inplace=False)\n  )\n  (lf_encoder): TransformerEncoder(\n    (layers): ModuleList(\n      (0-1): 2 x TransformerEncoderLayer(\n        (self_attn): MultiheadAttention(\n          (out_proj): NonDynamicallyQuantizableLinear(in_features=64, out_features=64, bias=True)\n        )\n        (linear1): Linear(in_features=64, out_features=128, bias=True)\n        (dropout): Dropout(p=0.1, inplace=False)\n        (linear2): Linear(in_features=128, out_features=64, bias=True)\n        (norm1): LayerNorm((64,), eps=1e-05, elementwise_affine=True)\n        (norm2): LayerNorm((64,), eps=1e-05, elementwise_affine=True)\n        (dropout1): Dropout(p=0.1, inplace=False)\n        (dropout2): Dropout(p=0.1, inplace=False)\n        (activation): GELU(approximate='none')\n      )\n    )\n    (norm): LayerNorm((64,), eps=1e-05, elementwise_affine=True)\n  )\n  (static_encoder): Sequential(\n    (0): Linear(in_features=15, out_features=64, bias=True)\n    (1): LayerNorm((64,), eps=1e-05, elementwise_affine=True)\n    (2): GELU(approximate='none')\n    (3): Linear(in_features=64, out_features=64, bias=True)\n    (4): LayerNorm((64,), eps=1e-05, elementwise_affine=True)\n    (5): GELU(approximate='none')\n  )\n  (fusion): AttentionFusion(\n    (self_attention): MultiheadAttention(\n      (out_proj): NonDynamicallyQuantizableLinear(in_features=64, out_features=64, bias=True)\n    )\n    (proj): Sequential(\n      (0): Linear(in_features=256, out_features=256, bias=True)\n      (1): LayerNorm((256,), eps=1e-05, elementwise_affine=True)\n      (2): GELU(approximate='none')\n      (3): Dropout(p=0.1, inplace=False)\n    )\n  )\n  (actor): ActorNetwork(\n    (shared): Sequential(\n      (0): Linear(in_features=256, out_features=256, bias=True)\n      (1): LayerNorm((256,), eps=1e-05, elementwise_affine=True)\n      (2): GELU(approximate='none')\n      (3): Linear(in_features=256, out_features=256, bias=True)\n      (4): LayerNorm((256,), eps=1e-05, elementwise_affine=True)\n      (5): GELU(approximate='none')\n    )\n    (mean): Linear(in_features=256, out_features=1, bias=True)\n  )\n  (critic): CriticNetwork(\n    (critic): Sequential(\n      (0): Linear(in_features=256, out_features=256, bias=True)\n      (1): LayerNorm((256,), eps=1e-05, elementwise_affine=True)\n      (2): GELU(approximate='none')\n      (3): Linear(in_features=256, out_features=256, bias=True)\n      (4): LayerNorm((256,), eps=1e-05, elementwise_affine=True)\n      (5): GELU(approximate='none')\n      (6): Linear(in_features=256, out_features=1, bias=True)\n    )\n  )\n)","_wandb":{"runtime":9}}